Feature engineering
Preparing training and test sets
Ci sono 6 serie con 257 utenti.
Ci sono 0 serie con 56 utenti.
Model: "sequential_1"
_________________________________________________________________
Layer (type)                 Output Shape              Param #   
=================================================================
lstm_1 (LSTM)                (None, 20, 4)             144       
_________________________________________________________________
dropout_1 (Dropout)          (None, 20, 4)             0         
_________________________________________________________________
lstm_2 (LSTM)                (None, 16)                1344      
_________________________________________________________________
dropout_2 (Dropout)          (None, 16)                0         
_________________________________________________________________
dense_1 (Dense)              (None, 4)                 68        
=================================================================
Total params: 1,556
Trainable params: 1,556
Non-trainable params: 0
_________________________________________________________________
Training model...
Training
Traceback (most recent call last):
  File "/Applications/PyCharm.app/Contents/helpers/pydev/pydev_run_in_console.py", line 52, in run_file
    pydev_imports.execfile(file, globals, locals)  # execute the script
…
