Feature engineering
Preparing training and test sets
Ci sono 19 serie con 256 utenti.
Ci sono 0 serie con 49 utenti.
Model: "sequential_1"
_________________________________________________________________
Layer (type)                 Output Shape              Param #   
=================================================================
lstm_1 (LSTM)                (None, 20, 4)             144       
_________________________________________________________________
dropout_1 (Dropout)          (None, 20, 4)             0         
_________________________________________________________________
lstm_2 (LSTM)                (None, 16)                1344      
_________________________________________________________________
dropout_2 (Dropout)          (None, 16)                0         
_________________________________________________________________
dense_1 (Dense)              (None, 4)                 68        
=================================================================
Total params: 1,556
Trainable params: 1,556
Non-trainable params: 0
_________________________________________________________________
Training model...
Training
2019-10-08 15:34:14.914377: I tensorflow/core/platform/cpu_feature_guard.cc:142] Your CPU supports instructions that this TensorFlow binary was not compiled to use: AVX2 FMA
…
